,id,f1_score,precision,recall,accuracy,cross_entropy,seed,circuit,learning_rate,loss_history,val_losses,val_f1s,avg_epoch_time_seconds,network_str,model_path,weight_path,epochs,n_qubits,features_per_qubit,scaler
0,0,0.6789587852494577,0.5139573070607554,1.0,0.5139573070607554,0.6318770051002502,1,Ranga2024Circuit,0.01,"[… ","[… ","[… ",91.10736231505871,"BinQuantumNeuralNetwork(
  (quantum_circuit_nn): Ranga2024Circuit()
  (pre_processing): Linear(in_features=16, out_features=16, bias=True)
  (post_processing): Linear(in_features=1, out_features=1, bias=True)
)",results/models/bin/Ranga2024Circuit_expID_1_dfID_0.pth,results/weights/bin/,16,4,4,MinMaxScaler
1,1,0.6789587852494577,0.5139573070607554,1.0,0.5139573070607554,0.6318867206573486,1,Ranga2024Circuit,0.001,"[… ","[… ","[… ",89.59233292937279,"BinQuantumNeuralNetwork(
  (quantum_circuit_nn): Ranga2024Circuit()
  (pre_processing): Linear(in_features=16, out_features=16, bias=True)
  (post_processing): Linear(in_features=1, out_features=1, bias=True)
)",results/models/bin/Ranga2024Circuit_expID_1_dfID_1.pth,results/weights/bin/,16,4,4,MinMaxScaler
2,2,0.6789587852494577,0.5139573070607554,1.0,0.5139573070607554,0.666048526763916,1,Senokosov2024Circuit,0.01,"[… ","[… ","[… ",100.11857059597969,"BinQuantumNeuralNetwork(
  (quantum_circuit_nn): Senokosov2024Circuit()
  (pre_processing): Linear(in_features=16, out_features=16, bias=True)
  (post_processing): Linear(in_features=1, out_features=1, bias=True)
)",results/models/bin/Senokosov2024Circuit_expID_1_dfID_2.pth,results/weights/bin/,16,4,4,MinMaxScaler
3,3,0.6789587852494577,0.5139573070607554,1.0,0.5139573070607554,0.6731680631637573,1,Senokosov2024Circuit,0.001,"[… ","[… ","[… ",100.07259580492973,"BinQuantumNeuralNetwork(
  (quantum_circuit_nn): Senokosov2024Circuit()
  (pre_processing): Linear(in_features=16, out_features=16, bias=True)
  (post_processing): Linear(in_features=1, out_features=1, bias=True)
)",results/models/bin/Senokosov2024Circuit_expID_1_dfID_3.pth,results/weights/bin/,16,4,4,MinMaxScaler
4,4,0.7257971014492753,0.5696087352138307,1.0,0.6116584564860427,0.6460959315299988,1,Anusha2024Circuit,0.01,"[… ","[… ","[… ",30.53732669353485,"BinQuantumNeuralNetwork(
  (quantum_circuit_nn): Anusha2024Circuit()
  (pre_processing): Linear(in_features=16, out_features=16, bias=True)
  (post_processing): Linear(in_features=1, out_features=1, bias=True)
)",results/models/bin/Anusha2024Circuit_expID_1_dfID_4.pth,results/weights/bin/,16,4,4,MinMaxScaler
5,5,0.7488038277511961,0.5984703632887189,1.0,0.6551724137931034,0.6459441184997559,1,Anusha2024Circuit,0.001,"[… ","[… ","[… ",30.5650544911623,"BinQuantumNeuralNetwork(
  (quantum_circuit_nn): Anusha2024Circuit()
  (pre_processing): Linear(in_features=16, out_features=16, bias=True)
  (post_processing): Linear(in_features=1, out_features=1, bias=True)
)",results/models/bin/Anusha2024Circuit_expID_1_dfID_5.pth,results/weights/bin/,16,4,4,MinMaxScaler
6,6,0.6789587852494577,0.5139573070607554,1.0,0.5139573070607554,0.6745529174804688,1,DoubleEntanglementVLCircuit,0.01,"[… ","[… ","[… ",53.223338946700096,"BinQuantumNeuralNetwork(
  (quantum_circuit_nn): DoubleEntanglementVLCircuit()
  (pre_processing): Linear(in_features=16, out_features=16, bias=True)
  (post_processing): Linear(in_features=1, out_features=1, bias=True)
)",results/models/bin/DoubleEntanglementVLCircuit_expID_1_dfID_6.pth,results/weights/bin/,16,4,4,MinMaxScaler
7,7,0.6789587852494577,0.5139573070607554,1.0,0.5139573070607554,0.6748818755149841,1,DoubleEntanglementVLCircuit,0.001,"[… ","[… ","[… ",52.96344593167305,"BinQuantumNeuralNetwork(
  (quantum_circuit_nn): DoubleEntanglementVLCircuit()
  (pre_processing): Linear(in_features=16, out_features=16, bias=True)
  (post_processing): Linear(in_features=1, out_features=1, bias=True)
)",results/models/bin/DoubleEntanglementVLCircuit_expID_1_dfID_7.pth,results/weights/bin/,16,4,4,MinMaxScaler
8,8,0.806009144350098,0.6817679558011049,0.9856230031948882,0.7561576354679803,0.5877489447593689,2,Ranga2024Circuit,0.01,"[… ","[… ","[… ",89.79955968260765,"BinQuantumNeuralNetwork(
  (quantum_circuit_nn): Ranga2024Circuit()
  (pre_processing): Linear(in_features=16, out_features=16, bias=True)
  (post_processing): Linear(in_features=1, out_features=1, bias=True)
)",results/models/bin/Ranga2024Circuit_expID_1_dfID_8.pth,results/weights/bin/,16,4,4,MinMaxScaler
9,9,0.8098958333333334,0.6835164835164835,0.9936102236421726,0.7602627257799671,0.6100448369979858,2,Ranga2024Circuit,0.001,"[… ","[… ","[… ",89.81654019653797,"BinQuantumNeuralNetwork(
  (quantum_circuit_nn): Ranga2024Circuit()
  (pre_processing): Linear(in_features=16, out_features=16, bias=True)
  (post_processing): Linear(in_features=1, out_features=1, bias=True)
)",results/models/bin/Ranga2024Circuit_expID_1_dfID_9.pth,results/weights/bin/,16,4,4,MinMaxScaler
10,10,0.929745889387145,0.8735955056179775,0.9936102236421726,0.922824302134647,0.5529264211654663,2,Senokosov2024Circuit,0.01,"[… ","[… ","[… ",101.36809279024601,"BinQuantumNeuralNetwork(
  (quantum_circuit_nn): Senokosov2024Circuit()
  (pre_processing): Linear(in_features=16, out_features=16, bias=True)
  (post_processing): Linear(in_features=1, out_features=1, bias=True)
)",results/models/bin/Senokosov2024Circuit_expID_1_dfID_10.pth,results/weights/bin/,16,4,4,MinMaxScaler
11,11,0.9694596711041503,0.9508448540706606,0.9888178913738019,0.9679802955665024,0.5774064064025879,2,Senokosov2024Circuit,0.001,"[… ","[… ","[… ",100.92653150856495,"BinQuantumNeuralNetwork(
  (quantum_circuit_nn): Senokosov2024Circuit()
  (pre_processing): Linear(in_features=16, out_features=16, bias=True)
  (post_processing): Linear(in_features=1, out_features=1, bias=True)
)",results/models/bin/Senokosov2024Circuit_expID_1_dfID_11.pth,results/weights/bin/,16,4,4,MinMaxScaler
12,12,0.9131782945736434,0.8870481927710844,0.9408945686900958,0.9080459770114943,0.5482638478279114,2,Anusha2024Circuit,0.01,"[… ","[… ","[… ",30.523785322904587,"BinQuantumNeuralNetwork(
  (quantum_circuit_nn): Anusha2024Circuit()
  (pre_processing): Linear(in_features=16, out_features=16, bias=True)
  (post_processing): Linear(in_features=1, out_features=1, bias=True)
)",results/models/bin/Anusha2024Circuit_expID_1_dfID_12.pth,results/weights/bin/,16,4,4,MinMaxScaler
13,13,0.9113725490196078,0.8952234206471494,0.9281150159744409,0.9072249589490968,0.548200249671936,2,Anusha2024Circuit,0.001,"[… ","[… ","[… ",30.54840287566185,"BinQuantumNeuralNetwork(
  (quantum_circuit_nn): Anusha2024Circuit()
  (pre_processing): Linear(in_features=16, out_features=16, bias=True)
  (post_processing): Linear(in_features=1, out_features=1, bias=True)
)",results/models/bin/Anusha2024Circuit_expID_1_dfID_13.pth,results/weights/bin/,16,4,4,MinMaxScaler
14,14,0.8638562543192813,0.761266747868453,0.9984025559105432,0.8382594417077176,0.5685570240020752,2,DoubleEntanglementVLCircuit,0.01,"[… ","[… ","[… ",52.92992481589317,"BinQuantumNeuralNetwork(
  (quantum_circuit_nn): DoubleEntanglementVLCircuit()
  (pre_processing): Linear(in_features=16, out_features=16, bias=True)
  (post_processing): Linear(in_features=1, out_features=1, bias=True)
)",results/models/bin/DoubleEntanglementVLCircuit_expID_1_dfID_14.pth,results/weights/bin/,16,4,4,MinMaxScaler
15,15,0.9018759018759018,0.8223684210526315,0.9984025559105432,0.8883415435139573,0.5707534551620483,2,DoubleEntanglementVLCircuit,0.001,"[… ","[… ","[… ",52.78094923496246,"BinQuantumNeuralNetwork(
  (quantum_circuit_nn): DoubleEntanglementVLCircuit()
  (pre_processing): Linear(in_features=16, out_features=16, bias=True)
  (post_processing): Linear(in_features=1, out_features=1, bias=True)
)",results/models/bin/DoubleEntanglementVLCircuit_expID_1_dfID_15.pth,results/weights/bin/,16,4,4,MinMaxScaler
16,16,0.8916256157635468,0.9172297297297297,0.8674121405750799,0.8916256157635468,0.535785436630249,3,Ranga2024Circuit,0.01,"[… ","[… ","[… ",89.44334261119366,"BinQuantumNeuralNetwork(
  (quantum_circuit_nn): Ranga2024Circuit()
  (pre_processing): Linear(in_features=16, out_features=16, bias=True)
  (post_processing): Linear(in_features=1, out_features=1, bias=True)
)",results/models/bin/Ranga2024Circuit_expID_1_dfID_16.pth,results/weights/bin/,16,4,4,MinMaxScaler
17,17,0.8894389438943895,0.9197952218430034,0.8610223642172524,0.8899835796387521,0.5358735918998718,3,Ranga2024Circuit,0.001,"[… ","[… ","[… ",89.40389101207256,"BinQuantumNeuralNetwork(
  (quantum_circuit_nn): Ranga2024Circuit()
  (pre_processing): Linear(in_features=16, out_features=16, bias=True)
  (post_processing): Linear(in_features=1, out_features=1, bias=True)
)",results/models/bin/Ranga2024Circuit_expID_1_dfID_17.pth,results/weights/bin/,16,4,4,MinMaxScaler
18,18,0.9771986970684039,0.9966777408637874,0.9584664536741214,0.9770114942528736,0.4980951249599457,3,Senokosov2024Circuit,0.01,"[… ","[… ","[… ",99.68062460422516,"BinQuantumNeuralNetwork(
  (quantum_circuit_nn): Senokosov2024Circuit()
  (pre_processing): Linear(in_features=16, out_features=16, bias=True)
  (post_processing): Linear(in_features=1, out_features=1, bias=True)
)",results/models/bin/Senokosov2024Circuit_expID_1_dfID_18.pth,results/weights/bin/,16,4,4,MinMaxScaler
19,19,0.9815557337610264,0.9855072463768116,0.9776357827476039,0.9811165845648604,0.49412238597869873,3,Senokosov2024Circuit,0.001,"[… ","[… ","[… ",99.83078584074974,"BinQuantumNeuralNetwork(
  (quantum_circuit_nn): Senokosov2024Circuit()
  (pre_processing): Linear(in_features=16, out_features=16, bias=True)
  (post_processing): Linear(in_features=1, out_features=1, bias=True)
)",results/models/bin/Senokosov2024Circuit_expID_1_dfID_19.pth,results/weights/bin/,16,4,4,MinMaxScaler
20,20,0.9206598586017282,0.9057187017001546,0.9361022364217252,0.9170771756978654,0.4973409175872803,3,Anusha2024Circuit,0.01,"[… ","[… ","[… ",30.397752955555916,"BinQuantumNeuralNetwork(
  (quantum_circuit_nn): Anusha2024Circuit()
  (pre_processing): Linear(in_features=16, out_features=16, bias=True)
  (post_processing): Linear(in_features=1, out_features=1, bias=True)
)",results/models/bin/Anusha2024Circuit_expID_1_dfID_20.pth,results/weights/bin/,16,4,4,MinMaxScaler
21,21,0.9190887666928516,0.9041731066460588,0.9345047923322684,0.9154351395730707,0.4974690079689026,3,Anusha2024Circuit,0.001,"[… ","[… ","[… ",30.43093104660511,"BinQuantumNeuralNetwork(
  (quantum_circuit_nn): Anusha2024Circuit()
  (pre_processing): Linear(in_features=16, out_features=16, bias=True)
  (post_processing): Linear(in_features=1, out_features=1, bias=True)
)",results/models/bin/Anusha2024Circuit_expID_1_dfID_21.pth,results/weights/bin/,16,4,4,MinMaxScaler
22,22,0.9683544303797469,0.9592476489028213,0.9776357827476039,0.9671592775041051,0.5308786034584045,3,DoubleEntanglementVLCircuit,0.01,"[… ","[… ","[… ",52.81645968556404,"BinQuantumNeuralNetwork(
  (quantum_circuit_nn): DoubleEntanglementVLCircuit()
  (pre_processing): Linear(in_features=16, out_features=16, bias=True)
  (post_processing): Linear(in_features=1, out_features=1, bias=True)
)",results/models/bin/DoubleEntanglementVLCircuit_expID_1_dfID_22.pth,results/weights/bin/,16,4,4,MinMaxScaler
23,23,0.968503937007874,0.9549689440993789,0.9824281150159745,0.9671592775041051,0.537964940071106,3,DoubleEntanglementVLCircuit,0.001,"[… ","[… ","[… ",52.76227408647537,"BinQuantumNeuralNetwork(
  (quantum_circuit_nn): DoubleEntanglementVLCircuit()
  (pre_processing): Linear(in_features=16, out_features=16, bias=True)
  (post_processing): Linear(in_features=1, out_features=1, bias=True)
)",results/models/bin/DoubleEntanglementVLCircuit_expID_1_dfID_23.pth,results/weights/bin/,16,4,4,MinMaxScaler
24,24,0.6789587852494577,0.5139573070607554,1.0,0.5139573070607554,0.657336950302124,4,Ranga2024Circuit,0.01,"[… ","[… ","[… ",89.45467664301395,"BinQuantumNeuralNetwork(
  (quantum_circuit_nn): Ranga2024Circuit()
  (pre_processing): Linear(in_features=16, out_features=16, bias=True)
  (post_processing): Linear(in_features=1, out_features=1, bias=True)
)",results/models/bin/Ranga2024Circuit_expID_1_dfID_24.pth,results/weights/bin/,16,4,4,MinMaxScaler
25,25,0.6789587852494577,0.5139573070607554,1.0,0.5139573070607554,0.6591427326202393,4,Ranga2024Circuit,0.001,"[… ","[… ","[… ",2874.1152259409428,"BinQuantumNeuralNetwork(
  (quantum_circuit_nn): Ranga2024Circuit()
  (pre_processing): Linear(in_features=16, out_features=16, bias=True)
  (post_processing): Linear(in_features=1, out_features=1, bias=True)
)",results/models/bin/Ranga2024Circuit_expID_1_dfID_25.pth,results/weights/bin/,16,4,4,MinMaxScaler
26,26,0.7174785100286533,0.5594280607685433,1.0,0.5952380952380952,0.6546654105186462,4,Senokosov2024Circuit,0.01,"[… ","[… ","[… ",109.35600966215134,"BinQuantumNeuralNetwork(
  (quantum_circuit_nn): Senokosov2024Circuit()
  (pre_processing): Linear(in_features=16, out_features=16, bias=True)
  (post_processing): Linear(in_features=1, out_features=1, bias=True)
)",results/models/bin/Senokosov2024Circuit_expID_1_dfID_26.pth,results/weights/bin/,16,4,4,MinMaxScaler
27,27,0.680804785209353,0.516075845012366,1.0,0.5180623973727422,0.6574529409408569,4,Senokosov2024Circuit,0.001,"[… ","[… ","[… ",111.56379152834415,"BinQuantumNeuralNetwork(
  (quantum_circuit_nn): Senokosov2024Circuit()
  (pre_processing): Linear(in_features=16, out_features=16, bias=True)
  (post_processing): Linear(in_features=1, out_features=1, bias=True)
)",results/models/bin/Senokosov2024Circuit_expID_1_dfID_27.pth,results/weights/bin/,16,4,4,MinMaxScaler
28,28,0.7045582442318514,0.5438748913987836,1.0,0.5689655172413793,0.6486124396324158,4,Anusha2024Circuit,0.01,"[… ","[… ","[… ",34.50203202664852,"BinQuantumNeuralNetwork(
  (quantum_circuit_nn): Anusha2024Circuit()
  (pre_processing): Linear(in_features=16, out_features=16, bias=True)
  (post_processing): Linear(in_features=1, out_features=1, bias=True)
)",results/models/bin/Anusha2024Circuit_expID_1_dfID_28.pth,results/weights/bin/,16,4,4,MinMaxScaler
29,29,0.6982710540992749,0.5364181662382177,1.0,0.5558292282430214,0.6481412649154663,4,Anusha2024Circuit,0.001,"[… ","[… ","[… ",34.458163157105446,"BinQuantumNeuralNetwork(
  (quantum_circuit_nn): Anusha2024Circuit()
  (pre_processing): Linear(in_features=16, out_features=16, bias=True)
  (post_processing): Linear(in_features=1, out_features=1, bias=True)
)",results/models/bin/Anusha2024Circuit_expID_1_dfID_29.pth,results/weights/bin/,16,4,4,MinMaxScaler
30,30,0.6967167501391207,0.5345858240819812,1.0,0.5525451559934319,0.6571096777915955,4,DoubleEntanglementVLCircuit,0.01,"[… ","[… ","[… ",59.117482617497444,"BinQuantumNeuralNetwork(
  (quantum_circuit_nn): DoubleEntanglementVLCircuit()
  (pre_processing): Linear(in_features=16, out_features=16, bias=True)
  (post_processing): Linear(in_features=1, out_features=1, bias=True)
)",results/models/bin/DoubleEntanglementVLCircuit_expID_1_dfID_30.pth,results/weights/bin/,16,4,4,MinMaxScaler
31,31,0.6882902693787796,0.5247275775356245,1.0,0.5344827586206896,0.6568883657455444,4,DoubleEntanglementVLCircuit,0.001,"[… ","[… ","[… ",59.5428152680397,"BinQuantumNeuralNetwork(
  (quantum_circuit_nn): DoubleEntanglementVLCircuit()
  (pre_processing): Linear(in_features=16, out_features=16, bias=True)
  (post_processing): Linear(in_features=1, out_features=1, bias=True)
)",results/models/bin/DoubleEntanglementVLCircuit_expID_1_dfID_31.pth,results/weights/bin/,16,4,4,MinMaxScaler
32,32,0.8459167950693375,0.8169642857142857,0.8769968051118211,0.8357963875205254,0.5817659497261047,5,Ranga2024Circuit,0.01,"[… ","[… ","[… ",101.52791965007782,"BinQuantumNeuralNetwork(
  (quantum_circuit_nn): Ranga2024Circuit()
  (pre_processing): Linear(in_features=16, out_features=16, bias=True)
  (post_processing): Linear(in_features=1, out_features=1, bias=True)
)",results/models/bin/Ranga2024Circuit_expID_1_dfID_32.pth,results/weights/bin/,16,4,4,MinMaxScaler
33,33,0.8489096573208723,0.8282674772036475,0.8706070287539937,0.8407224958949097,0.5815616846084595,5,Ranga2024Circuit,0.001,"[… ","[… ","[… ",101.65895265340805,"BinQuantumNeuralNetwork(
  (quantum_circuit_nn): Ranga2024Circuit()
  (pre_processing): Linear(in_features=16, out_features=16, bias=True)
  (post_processing): Linear(in_features=1, out_features=1, bias=True)
)",results/models/bin/Ranga2024Circuit_expID_1_dfID_33.pth,results/weights/bin/,16,4,4,MinMaxScaler
34,34,0.8969149736644093,0.8477951635846372,0.952076677316294,0.8875205254515599,0.5003902912139893,5,Senokosov2024Circuit,0.01,"[… ","[… ","[… ",113.77053174376488,"BinQuantumNeuralNetwork(
  (quantum_circuit_nn): Senokosov2024Circuit()
  (pre_processing): Linear(in_features=16, out_features=16, bias=True)
  (post_processing): Linear(in_features=1, out_features=1, bias=True)
)",results/models/bin/Senokosov2024Circuit_expID_1_dfID_34.pth,results/weights/bin/,16,4,4,MinMaxScaler
35,35,0.8936825885978429,0.8630952380952381,0.9265175718849841,0.8866995073891626,0.5768494009971619,5,Senokosov2024Circuit,0.001,"[… ","[… ","[… ",113.412827283144,"BinQuantumNeuralNetwork(
  (quantum_circuit_nn): Senokosov2024Circuit()
  (pre_processing): Linear(in_features=16, out_features=16, bias=True)
  (post_processing): Linear(in_features=1, out_features=1, bias=True)
)",results/models/bin/Senokosov2024Circuit_expID_1_dfID_35.pth,results/weights/bin/,16,4,4,MinMaxScaler
36,36,0.8864306784660767,0.8232876712328767,0.9600638977635783,0.8735632183908046,0.5678399205207825,5,Anusha2024Circuit,0.01,"[… ","[… ","[… ",34.72577300667763,"BinQuantumNeuralNetwork(
  (quantum_circuit_nn): Anusha2024Circuit()
  (pre_processing): Linear(in_features=16, out_features=16, bias=True)
  (post_processing): Linear(in_features=1, out_features=1, bias=True)
)",results/models/bin/Anusha2024Circuit_expID_1_dfID_36.pth,results/weights/bin/,16,4,4,MinMaxScaler
37,37,0.8875739644970414,0.8264462809917356,0.9584664536741214,0.8752052545155994,0.5678499341011047,5,Anusha2024Circuit,0.001,"[… ","[… ","[… ",34.996599555015564,"BinQuantumNeuralNetwork(
  (quantum_circuit_nn): Anusha2024Circuit()
  (pre_processing): Linear(in_features=16, out_features=16, bias=True)
  (post_processing): Linear(in_features=1, out_features=1, bias=True)
)",results/models/bin/Anusha2024Circuit_expID_1_dfID_37.pth,results/weights/bin/,16,4,4,MinMaxScaler
38,38,0.8935532233883059,0.8418079096045198,0.952076677316294,0.8834154351395731,0.539263129234314,5,DoubleEntanglementVLCircuit,0.01,"[… ","[… ","[… ",59.7017323076725,"BinQuantumNeuralNetwork(
  (quantum_circuit_nn): DoubleEntanglementVLCircuit()
  (pre_processing): Linear(in_features=16, out_features=16, bias=True)
  (post_processing): Linear(in_features=1, out_features=1, bias=True)
)",results/models/bin/DoubleEntanglementVLCircuit_expID_1_dfID_38.pth,results/weights/bin/,16,4,4,MinMaxScaler
39,39,0.8944954128440367,0.8577712609970675,0.9345047923322684,0.8866995073891626,0.5402654409408569,5,DoubleEntanglementVLCircuit,0.001,"[… ","[… ","[… ",59.41904300451279,"BinQuantumNeuralNetwork(
  (quantum_circuit_nn): DoubleEntanglementVLCircuit()
  (pre_processing): Linear(in_features=16, out_features=16, bias=True)
  (post_processing): Linear(in_features=1, out_features=1, bias=True)
)",results/models/bin/DoubleEntanglementVLCircuit_expID_1_dfID_39.pth,results/weights/bin/,16,4,4,MinMaxScaler
40,40,0.8341930729550479,0.774281805745554,0.9041533546325878,0.8152709359605911,0.5123389959335327,6,Ranga2024Circuit,0.01,"[… ","[… ","[… ",100.46540597081184,"BinQuantumNeuralNetwork(
  (quantum_circuit_nn): Ranga2024Circuit()
  (pre_processing): Linear(in_features=16, out_features=16, bias=True)
  (post_processing): Linear(in_features=1, out_features=1, bias=True)
)",results/models/bin/Ranga2024Circuit_expID_1_dfID_40.pth,results/weights/bin/,16,4,4,MinMaxScaler
41,41,0.8405584129316679,0.7782312925170068,0.9137380191693291,0.8218390804597702,0.5136408805847168,6,Ranga2024Circuit,0.001,"[… ","[… ","[… ",100.52071145176888,"BinQuantumNeuralNetwork(
  (quantum_circuit_nn): Ranga2024Circuit()
  (pre_processing): Linear(in_features=16, out_features=16, bias=True)
  (post_processing): Linear(in_features=1, out_features=1, bias=True)
)",results/models/bin/Ranga2024Circuit_expID_1_dfID_41.pth,results/weights/bin/,16,4,4,MinMaxScaler
42,42,0.9476117103235747,0.9151785714285714,0.9824281150159745,0.9441707717569786,0.4307454824447632,6,Senokosov2024Circuit,0.01,"[… ","[… ","[… ",112.89582967758179,"BinQuantumNeuralNetwork(
  (quantum_circuit_nn): Senokosov2024Circuit()
  (pre_processing): Linear(in_features=16, out_features=16, bias=True)
  (post_processing): Linear(in_features=1, out_features=1, bias=True)
)",results/models/bin/Senokosov2024Circuit_expID_1_dfID_42.pth,results/weights/bin/,16,4,4,MinMaxScaler
43,43,0.9540140296180826,0.9315068493150684,0.9776357827476039,0.951559934318555,0.44850388169288635,6,Senokosov2024Circuit,0.001,"[… ","[… ","[… ",114.43038477003574,"BinQuantumNeuralNetwork(
  (quantum_circuit_nn): Senokosov2024Circuit()
  (pre_processing): Linear(in_features=16, out_features=16, bias=True)
  (post_processing): Linear(in_features=1, out_features=1, bias=True)
)",results/models/bin/Senokosov2024Circuit_expID_1_dfID_43.pth,results/weights/bin/,16,4,4,MinMaxScaler
44,44,0.9308270676691729,0.8792613636363636,0.9888178913738019,0.9244663382594417,0.4538934528827667,6,Anusha2024Circuit,0.01,"[… ","[… ","[… ",35.10525190830231,"BinQuantumNeuralNetwork(
  (quantum_circuit_nn): Anusha2024Circuit()
  (pre_processing): Linear(in_features=16, out_features=16, bias=True)
  (post_processing): Linear(in_features=1, out_features=1, bias=True)
)",results/models/bin/Anusha2024Circuit_expID_1_dfID_44.pth,results/weights/bin/,16,4,4,MinMaxScaler
45,45,0.9364599092284418,0.889367816091954,0.9888178913738019,0.9310344827586207,0.45393896102905273,6,Anusha2024Circuit,0.001,"[… ","[… ","[… ",35.029120445251465,"BinQuantumNeuralNetwork(
  (quantum_circuit_nn): Anusha2024Circuit()
  (pre_processing): Linear(in_features=16, out_features=16, bias=True)
  (post_processing): Linear(in_features=1, out_features=1, bias=True)
)",results/models/bin/Anusha2024Circuit_expID_1_dfID_45.pth,results/weights/bin/,16,4,4,MinMaxScaler
46,46,0.9638364779874213,0.9489164086687306,0.9792332268370607,0.9622331691297209,0.45241397619247437,6,DoubleEntanglementVLCircuit,0.01,"[… ","[… ","[… ",59.745012789964676,"BinQuantumNeuralNetwork(
  (quantum_circuit_nn): DoubleEntanglementVLCircuit()
  (pre_processing): Linear(in_features=16, out_features=16, bias=True)
  (post_processing): Linear(in_features=1, out_features=1, bias=True)
)",results/models/bin/DoubleEntanglementVLCircuit_expID_1_dfID_46.pth,results/weights/bin/,16,4,4,MinMaxScaler
47,47,0.959937156323645,0.9443585780525502,0.9760383386581469,0.958128078817734,0.45537102222442627,6,DoubleEntanglementVLCircuit,0.001,"[… ","[… ","[… ",60.224171578884125,"BinQuantumNeuralNetwork(
  (quantum_circuit_nn): DoubleEntanglementVLCircuit()
  (pre_processing): Linear(in_features=16, out_features=16, bias=True)
  (post_processing): Linear(in_features=1, out_features=1, bias=True)
)",results/models/bin/DoubleEntanglementVLCircuit_expID_1_dfID_47.pth,results/weights/bin/,16,4,4,MinMaxScaler
